model/model.pth (torch, 16787 bytes, 4 tensors)

linear1.weight f4 [256, 11]
00000000: 8be4 02bd a53f 033e e346 f0bd faaf 453e
00000010: bab0 d0be 575f 693e 3f00 b6be 3ad7 9bbe
00000020: b947 75be 6fb8 9dbe 20c9 d83e f216 9a3d
00000030: ede1 3bbe 98fe 0f3f 6308 7c3e b880 33bd
00000040: 0d3d 133e efb5 fbbd 8a2a e9bd 796e 80be
00000050: 3eec f53d a805 61be dddd f73e b88e d4be
00000060: 2042 893e 7f30 4fbe 54e8 e53d c009 663d
00000070: 7420 09be cf60 0a3e 4f78 33be f20e 18be
00000080: fc01 7fbd db16 573c 212f 07bf 0696 e23e
00000090: c942 16bf 9788 693e 203b a43e 3f3f 8f3e
000000a0: ba5b 77be 22c2 e2bd 0697 82be e088 ce3d
000000b0: 7a68 b13e c6ec f83d df92 41be a31c 52be
000000c0: a9ea 943d 7cda c2be cb3e 933d d983 7dbe
000000d0: 9172 8bbe 2b08 4e3e 3c64 a3be 24a2 1b3f
000000e0: e26f 9ebd b70e 4d3d 318e 43bd 0c1c 693e
000000f0: 1def abbe 8fe8 9a3e a2fa 0dbc 49e1 debe
00000100: f57b 8c3e 789d fcbe 905a 17be 2880 ae3d
00000110: 8f9a 3ebd ab75 fdbe 8422 df3d 174a 00bf
00000120: 24e0 553e 456d 20bf c64c 36bf ddc7 c2be
00000130: a503 d23e 3ea9 a53e 7e7f 423e f86a 953e
00000140: b7d1 d0be f9fe da3d 70af bcbe e3b9 0f3d
00000150: a41b f63e 162a 09be 4ddd 9a3e de0a 2ebd
00000160: 12e6 c53d 0d33 fc3e 0b69 0dbc 6527 643e
00000170: 055b 5fbe 9ed4 68be 1120 9ebc 461a f53d
00000180: 01ed d93e 0402 8cbb 152d 973e 5ee7 1fbe
00000190: b718 f1be 7970 5d3f c27c 553e e880 803e
000001a0: cde3 42bd b5d6 ed3d b805 ac3e 912b 333e
000001b0: aba3 c8be 0d9f a8be 2f9f e93d 3bdc 003f
000001c0: 3aa1 c33e a999 9ebc 1279 b5bd c4b6 bdbd
000001d0: 3709 fd3d 0c60 673e 7a62 cf3e aaad 303e
000001e0: 91bf 1a3e 5c29 81be 8f94 883e 21e4 7c3d
000001f0: bf23 03bf dcad 2d3e f5bb c43e 3ded 82be
00000200: 2229 cfbe 9004 16bf 3f66 613e 9d64 0ebf
00000210: 9b6b 31bb 1992 cdbd 3837 8cbd 0501 8cbe
00000220: cc93 743e 1130 f8be cdf9 33be a5f0 e9be
00000230: 7eeb f73e 7567 bb3d 96ad c9be 7ea1 bcbe
00000240: 84f2 7d3e b750 bd3e a2a7 403c daee e0be
00000250: e5ad 563b d2c8 aebe 0b9a aabd bd9f bcbe
00000260: 2de8 063e 92c8 abbe f617 dc3d 46fb 3abe
00000270: 7713 cdbe 8d4a 84bb dfbb 503d 64f3 f9bc
00000280: ff4d 06be 21f2 4a3d ceab 07be 360d 7d3d
00000290: c03c ee3c 5b7f 94be d545 bc3e 4d7f 89be
000002a0: 5dfa 00be ab59 033f fd5b 8c3e 3140 d33e
000002b0: 4354 3cbf 1a5a a0be 4941 903b f430 11be
000002c0: 0d50 653e dddd 043e cd20 8bbd e4a0 d6bd
000002d0: a246 84be 8963 b2bd f4b2 3bbc b325 993e
000002e0: 3dca fd3e fe63 bc3e 5848 843e 8421 bbbe
000002f0: ed35 313c f2a2 253e 49a8 14bd be12 9ebd
00000300: d4ec 563e 7a2d 34be 1331 733d 5ce3 52bb
00000310: ded0 b4be da94 a5bb f630 e33d ba62 e8be
00000320: 2016 84bd 5b26 8abd 4d3d cebe 757a 463e
00000330: 1ebe 30bd 8b1c 7a3e f1f0 113f 5bbf 4b3c
00000340: 45a2 5e3e 94e5 64be 21d3 cdbd 2ac0 e7be
00000350: 5d85 423e 55b6 6bbe 1f44 a8be b0d2 1d3e
00000360: b7ef 383e e1c8 0dbf 8b0c b4be 2929 233e
00000370: ff11 32bd 9a78 163f 77c5 46bd 296c 09be
00000380: 2cd1 1c3e e4e8 373d 2463 3ebe a9f4 d53e
00000390: 2c3b 3abe 804f 5e3e e984 04be e4ce a63e
000003a0: 72a6 c93e a3f8 913e db04 0e3e d43a d8bd
000003b0: fff0 243e 23d4 71be 572d 9c3e 8094 d63e
000003c0: f445 893d 3e98 cb3e 0754 ac3d d53c 153d
000003d0: f420 f8be 2c25 3ebe 4869 26be ce54 a8bd
000003e0: 4e4a 7cbd e841 2d3e 3605 f4bc 3381 6d3d
000003f0: 0908 103c 00a7 153f 4b9b 09bf 792a 0a3f
-0.031956237 0.12817247 -0.117322706 0.19305411 -0.40759832 0.22790276 -0.35547063 -0.30437642
-0.23953141 -0.30804774 0.42340946 0.07523908 -0.18347903 0.56247854 0.24612574 -0.043823928
0.14378758 -0.122905605 -0.11385067 -0.25084284 0.1200795 -0.21974814 0.48411456 -0.41515136
0.26808262 -0.20233344 0.11225954 0.056161642 -0.13391286 0.13513492 -0.17526363 -0.14849451
-0.06225775 0.013128008 -0.5280629 0.44255084 -0.58695656 0.22806011 0.3207636 0.2797794
-0.24156085 -0.11072184 -0.25505847 0.100847006 0.34650022 0.12154536 -0.18903683 -0.20518737
0.072713204 -0.38057315 0.07189711 -0.24757327 -0.27235845 0.20120303 -0.3191241 0.6079428
-0.07736184 0.05006286 -0.047743026 0.22764605 -0.33580866 0.30255553 -0.008665713 -0.43531254
0.27438322 -0.4933889 -0.1478064 0.085205376 -0.046534117 -0.49503836 0.10895255 -0.5011305
0.20886284 -0.6266673 -0.71210897 -0.3804311 0.41018406 0.32355684 0.18993947 0.29183173
-0.40785 0.106931634 -0.36852598 0.035089385 0.48067963 -0.13394961 0.30246964 -0.042490833
0.09663023 0.492577 -0.008631001 0.22280653 -0.21812065 -0.22737357 -0.0193024 0.11967902
0.42563632 -0.004272701 0.29526582 -0.15615603 -0.47089168 0.86499745 0.20848373 0.25098348
-0.04758053 0.11613218 0.33598113 0.17497088 -0.3918737 -0.32933846 0.11407315 0.50336045
0.38208944 -0.01936038 -0.08860983 -0.092633754 0.12355273 0.22595233 0.4050482 0.17253748
0.1511214 -0.25226867 0.2667584 0.061741 -0.5122642 0.16960853 0.3842465 -0.25571623
-0.4046107 -0.5860071 0.2201166 -0.55622274 -0.0027072194 -0.100376315 -0.0684647 -0.27344528
0.23884505 -0.48474172 -0.1757576 -0.4569141 0.48421854 0.09150592 -0.39390248 -0.3684196
0.24799544 0.36975643 0.011758717 -0.4393223 0.0032757458 -0.3413759 -0.083301626 -0.3684062
0.13174506 -0.3355146 0.10746758 -0.18259916 -0.40053913 -0.0040372075 0.050960418 -0.030511566
-0.1311569 0.04954732 -0.13249132 0.061780177 0.029081702 -0.29003415 0.36772028 -0.26854935
-0.12595506 0.513087 0.2741393 0.41259912 -0.73566073 -0.31318742 0.004402314 -0.1417883
0.22393818 0.12975259 -0.06793366 -0.10479906 -0.2583514 -0.08710391 -0.01145624 0.29911575
0.49568358 0.36795038 0.25836444 -0.36549008 0.01081608 0.1617544 -0.0362933 -0.077184185
0.2098878 -0.17595473 0.059372973 -0.0032178974 -0.35315603 -0.005053145 0.11093323 -0.45387822
-0.064495325 -0.06745597 -0.40281144 0.19382651 -0.04315006 0.24424951 0.5700827 0.012435759
0.21741588 -0.22353202 -0.10050035 -0.45263797 0.18996187 -0.23018773 -0.32864472 0.15412402
0.18060194 -0.5538464 -0.3516582 0.1593367 -0.043474194 0.58777773 -0.04852816 -0.13420166
0.15314168 0.044899836 -0.18592507 0.41788223 -0.18186635 0.21710014 -0.12941326 0.3257972
0.393848 0.28510007 0.1386904 -0.105580956 0.16107558 -0.2361608 0.30503342 0.41910172
0.067027956 0.3976459 0.084144644 0.036434967 -0.4846264 -0.18568867 -0.16251099 -0.082193
-0.0615943 0.16919672 -0.029787641 0.057984542 0.008790978 0.58457947 -0.53752583 0.5397106

linear1.bias f4 [256]
00000000: 54b8 2ebe 379e 41be 2865 38be ced0 023c
00000010: ef34 a23d d06d 1f3e 087b e93c b396 43be
00000020: 51de 70be e5f7 b53d caf0 81be 6b04 4a3c
00000030: e3e9 8d3b e4bd d5bd f6bc c6be 85f8 323f
00000040: 2397 b8be 201f acbe 9d8d 8dbe da5d 2d3e
00000050: 579f 31be fa3a dbbe 42f0 a5be 0137 76be
00000060: 9c91 b8be d164 bbbd c4c4 7ebe 1af1 7fbe
00000070: ea3f 323d 470f 1bbe 64df 91be 2490 63be
00000080: 991e a0be 97fe 663c 3ca7 d8bd cc46 9fbe
00000090: 4ee5 4d3f ab7f 88bd d651 a73d a0a1 bdbe
000000a0: d5af 80be f66d 793e cacd 3abd 76ec 13bb
000000b0: c5ae bd3e e209 393e 5332 54bc edec 89bd
000000c0: 899b 83bd c26a a9be 786c b3be 07a4 37be
000000d0: da46 24be 0c6b 57be f3b9 353d 93cd 5fbe
000000e0: bba9 5dbe 5d88 bb3d 7de4 5abe 2684 9bbe
000000f0: d2ac 98be 16fc 05be f9b5 45be fbe4 323e
00000100: 3609 133e 5bdb 833e d4db 4e3e 4720 64be
00000110: f2b2 ff3e 6321 d9bd fe9f cfbe 2c92 81be
00000120: a1c9 d43d 9091 723e fe5e 9cbe c3bb 27bd
00000130: 3258 d7be 5b1d c9bd 0794 bbbe 7b9e a7be
00000140: c81b 44be 258a 84be 23a1 4ebd 6fdb c1bd
00000150: 39cf 16be 22ff ef3e 10ff e4be e067 b73d
00000160: 72f3 cfbe aab1 52be fb1d a23e 9ae7 89be
00000170: ee26 e8be 57be 303d 1412 d8be 28cb f6bb
00000180: c3c2 c4be da94 8ebe 1f0d 353e 49ef 47be
00000190: 7a7b a1be 0f6f bdbd 0852 8dbe 52ec 523e
000001a0: 3305 21be cbce abbe a070 d8bb 05e5 2e3e
000001b0: 09a0 36be 6ffe 26be 216e 80be 4eb0 97be
000001c0: fe50 c43d 1d82 c03c 0dfb 893d 6114 a7bc
000001d0: c570 293f 7075 46be 7016 cfbd 20a9 d3be
000001e0: acef abbe 7d0c 333f c7d3 cf3e f774 e03b
000001f0: 6f42 b93d a224 c6be 82a3 3a3e 986f 96bd
00000200: 0442 92be 927b 5bbe c20e 9dbd 5303 2e3e
00000210: 04a8 b9be f27f b13e 2e40 76be 7b38 99be
00000220: 7478 c7be 1a3f 80be 8182 9dbe 04c8 903d
00000230: cd8e a53c 6c10 433d d139 aa3c 8670 26be
00000240: d25f 7dbe c905 36be 5cb2 3fbe d008 073f
00000250: b7f6 c0be 8f9a a6be 3f30 94bd 006c 9a3d
00000260: 5814 b5be 8001 bdbe 0d5a debe 8f60 11be
00000270: 5bea 59be ed5b 8dbe dd4e 96be 93b8 00bf
00000280: a581 88be 3a23 603e 7bd4 62be 4f25 223e
00000290: 6954 a5be cbe7 efbd d313 85bc 60e6 12be
000002a0: 6cc3 683d fc50 623d 2fc6 b2be 70e1 5cbe
000002b0: 07cf 9abe a084 00be e1fe 92be d0ac 24be
000002c0: 663e a5bd 9554 a5be e7d4 7b3e 08b4 7fbc
000002d0: 000b a93e 659a 64be 3ef1 62be a8ed f2bd
000002e0: c88b 7f3d 195f 4c3e a765 0ebd ed28 4abe
000002f0: 86e9 02be 4cac 02be 09bc 94be 9f76 a0be
00000300: e786 d93e f177 6d3e 3a03 b0bd b0de 0f3b
00000310: 6a15 5ebe cfa6 c0bd 6406 00be 12ff f5be
00000320: 45d2 103f 4fcc 48be fc25 813e a54a 1fbe
00000330: 711d 493e 8aac 31be bc66 61bd 8d73 dfbd
00000340: 2d05 20be ccb1 40be 8fd3 5b3e 4a6b 8abe
00000350: 6826 79be 841c cfbe 568f 82be d6dc 5cbd
00000360: b137 f83a 0f86 4bbe 7593 06be f16a ecbc
00000370: ef28 9ebe 60b0 4ebe 66bc 91be e693 3d3f
00000380: f5e4 48bd 8477 853e 2338 7ebe 9dea 3bbe
00000390: 30ef 093f ad81 26bd ad8b a4be e69b 953d
000003a0: d7a6 bdbe a311 a03d 29f4 63be 1d6e 87be
000003b0: a053 7dbe 3f14 933e 6953 a8be 8f7d 383e
000003c0: 1518 93be b203 eebd 7ccf 6dbc fb6d 2cbe
000003d0: a47b 103e 179a 91be 7d10 31be 3111 93bd
000003e0: 7b1c 84bd a29e 563d a2f7 1fbe 6457 bf3e
000003f0: f95c 7ebe 395c 38be e73a 403e 8b77 61be
-0.17062503 -0.1890801 -0.18007338 0.007984353 0.079202525 0.15569234 0.028501049 -0.19100456
-0.23522307 0.08885173 -0.2537902 0.012330155 0.00433086 -0.104366094 -0.3881604 0.6991046
-0.36052808 -0.33617496 -0.27647105 0.16930333 -0.1734594 -0.42818433 -0.32409865 -0.2404442
-0.3604859 -0.091500886 -0.24879748 -0.24994317 0.043517984 -0.15142547 -0.28490746 -0.22222954
-0.31273344 0.014098785 -0.105787724 -0.311087 0.80428016 -0.06664976 0.08169906 -0.37037373
-0.2513415 0.24358353 -0.045606412 -0.0022571362 0.370474 0.18070176 -0.012951451 -0.06734643
-0.0642615 -0.33089262 -0.35043693 -0.17933665 -0.16042653 -0.21036929 0.044366788 -0.21855764
-0.21646778 0.091568686 -0.21376224 -0.3037426 -0.2981935 -0.13084444 -0.19307698 0.17470162
0.14358982 0.25753292 0.20201045 -0.22277938 0.49941212 -0.10602071 -0.40551752 -0.25306833
0.1039002 0.2368834 -0.30541223 -0.040950548 -0.42059475 -0.09820052 -0.36636373 -0.32738099
-0.19151223 -0.25886646 -0.05044664 -0.09465682 -0.14727487 0.46874338 -0.44725847 0.089553595
-0.40615422 -0.20575586 0.31663498 -0.2693451 -0.453422 0.043150272 -0.42201293 -0.0075315423
-0.3842984 -0.2784794 0.17680787 -0.19524874 -0.31539518 -0.09249698 -0.27601647 0.20597962
-0.1572464 -0.33556208 -0.006605223 0.17079552 -0.17834486 -0.16307996 -0.25084022 -0.29626697
0.095857605 0.023499543 0.06737337 -0.02039546 0.661877 -0.19380736 -0.101117015 -0.4133997
-0.33581293 0.6994093 0.4059126 0.006849881 0.09045874 -0.38699824 0.18226436 -0.073455036
-0.2856599 -0.21433857 -0.076688305 0.16993456 -0.36260998 0.34667927 -0.2404792 -0.29925904
-0.38959086 -0.25048143 -0.3076363 0.070694 0.020209694 0.047623083 0.020779522 -0.16253862
-0.24743584 -0.17775644 -0.18720382 0.5274782 -0.37688228 -0.32539794 -0.07235765 0.075401306
-0.35367084 -0.36915207 -0.43428078 -0.1419699 -0.21280806 -0.27609196 -0.29357043 -0.5028164
-0.2666141 0.21888438 -0.22151367 0.15834545 -0.32290962 -0.11714133 -0.016244804 -0.14345694
0.056826994 0.055253014 -0.34916827 -0.21570373 -0.30236074 -0.12550592 -0.28710082 -0.16081548
-0.08068542 -0.32291093 0.24592935 -0.015606888 0.33016205 -0.22324522 -0.22162339 -0.118617356
0.062389165 0.19958152 -0.034764912 -0.19742174 -0.12784395 -0.12761039 -0.2904971 -0.313405
0.42485735 0.23190285 -0.085943654 0.00219528 -0.21687856 -0.09406816 -0.12502438 -0.48046166
0.56570846 -0.19609188 0.25224292 -0.15555818 0.19640137 -0.17350975 -0.055029616 -0.109107114
-0.15626974 -0.18817824 0.21467422 -0.2703498 -0.24331057 -0.40451443 -0.25499982 -0.053921543
0.0018937496 -0.19875358 -0.13142188 -0.028859587 -0.30890605 -0.20184469 -0.2846405 0.740538
-0.049046475 0.26067746 -0.24826102 -0.18351217 0.53880596 -0.040651012 -0.32137814 0.07305126
-0.3704135 0.07815864 -0.22261108 -0.26451197 -0.24738932 0.28726384 -0.32876137 0.18016647
-0.2872931 -0.116217986 -0.0145148 -0.16838829 0.14109665 -0.28437874 -0.17291446 -0.071810134
-0.06450745 0.052397378 -0.15621808 0.3737136 -0.24840154 -0.1800393 0.1877247 -0.22018258

linear2.weight f4 [3, 256]
00000000: dd5a 2fbe 5e94 05bb 35b3 ed3b bd96 963d
00000010: 97c1 6bbe 1189 d0be 35df b43e 79a0 2bbe
00000020: 0204 64bd f8e4 473e 5d87 bbbc 3ae4 043f
00000030: 387e 883e 2414 6f3d 04ef eabd 8f56 083f
00000040: 68b5 22be 2be9 f13c 085e fabd 1a6d 633e
00000050: a051 04bc 09bc dbbd b582 01bc e48d b1bd
00000060: be01 3fbe 2598 3c3c 31ef 61be c282 2dbd
00000070: db1b 24be b0d0 4a3e 1d7b 19bd 65b1 72bd
00000080: 0115 3ebd 5a30 fdbe 5cb9 89be 98de 9fbc
00000090: 880a ac3e d838 1bbd 5a90 18bf 2138 f2bc
000000a0: b595 673c 2589 343e 9ca7 aa3d 5b37 51bd
000000b0: 8ec5 e93e 6243 ad3b d762 92bd c83e 383e
000000c0: 50c4 eabd afe0 b1bc 8c07 03bd d621 03bd
000000d0: fbe8 2cbd a8b6 5d3c f6e2 56be 06b3 f8bc
000000e0: 90f4 41bc 7d3d d1be 3d21 533d 0f39 ed3d
000000f0: 0880 64bc 0d4e 813c edad efbe 87cc b93e
00000100: 6a4b d23e 38e2 0d3f 949d ed3e 7a03 b5be
00000110: 7162 903e e98a 0c3d f79c b3bd f6ef b9bc
00000120: a999 843e bdd3 c53e 4e59 a43b 3af6 f3be
00000130: bc65 1cbe 36fd 973e 20f3 06bd 9290 9bbc
00000140: c018 0c3d 5a90 b0bb 859e 5b3e fcff 42be
00000150: 0b7f 71bd 0320 eb3e a6d4 c6bd e962 243e
00000160: c450 9dbd 1522 dabb b800 c73e ad55 b6ba
00000170: 6c15 13bc cd08 1a3e eb39 0abb 7600 b13c
00000180: 9e51 52be 3ae4 92bd 5998 093f d5c4 acbd
00000190: 0392 453d 82dd 05be da9e a4be ffa9 6b3e
000001a0: b457 8abe 4d75 1dbe e414 d63d 1e45 433c
000001b0: 95eb 263d 25d4 dabc a8d3 adbe 61bf d9bd
000001c0: b140 85be 24d4 e7bd 6b0b c33d 7786 043e
000001d0: 722a 9b3e 4c10 21bd 432c 3fbd 531b 0a3d
000001e0: 246b b6bb 1570 cf3e 2d31 c23e 154f 99bd
000001f0: 87b2 c03e 18f3 65bd d8d8 163f dfae 77bc
00000200: be3d 27bd 4bd7 c1be 8db1 bbbe b8b5 eb3e
00000210: e3e3 98bd 91bc b23e eba3 3abd a42f 1e3c
00000220: 3bc6 7fbc dc97 66be 73b1 04bf a40e 923d
00000230: 082f ed3d 56c1 1d3d c0f4 953e c477 02bf
00000240: 9203 eabd 5f14 73bd 3a46 e0be ea0e 0c3e
00000250: ca3d c63d c984 b8bd 5b81 713d 2d9a f33e
00000260: ba7b a8be 5ce4 5f3c bd6e d1bb 58b8 4dbc
00000270: 0866 71bd 2541 7fbe 6435 b1bb ed1a 51be
00000280: a8d9 b83c 9d2f 073e 68ae 05be 81b0 da3e
00000290: 5ce3 b2be 82c8 32bd d6b1 9a3b 7e03 cdbc
000002a0: 21ca 073f 8834 393e bc48 fabc 44c7 47be
000002b0: 648f 3dbe d950 1c3e d3e4 a53b 5e76 d43c
000002c0: 1ae0 51be c698 d4bd 3866 f13e 2e80 a83b
000002d0: 87c0 bc3e ffef c8bd 01ee 9bbe bd7e 8ebe
000002e0: 1d2c 76bd 3800 283e c40a 813c a255 55bc
000002f0: d228 2b3e a344 40bd b8c9 08be 13b5 28bd
00000300: a867 c03e 8d1f 0f3f 217a 2c3d 330c 89be
00000310: d97e a5bc 4d2b ed3e 5c9b b0bd 1b06 21be
00000320: 9d11 8a3e 9778 99bd c6f8 c63e 0a10 d4bc
00000330: 528a 463e c27c dabb 653c 6d3d 6c5f febb
00000340: ae59 a0be 3a16 9dbc 3c18 1d3f d612 0abc
00000350: 4155 babb 72c5 debd 3019 7bbe 4793 c6be
00000360: 0bb5 633e 68b4 79be 0ba6 a83c fa61 8bbe
00000370: 9cba f8be 9c5e b73c f171 55bb e4b6 e23e
00000380: a899 c9be b625 4a3d 7515 48bd c078 4bbd
00000390: 71bd f03d 03a5 47bc 245f 34bd 57a6 133c
000003a0: 9e52 c0bd 3c00 a73e ae9f 6ebc 2afd 18bf
000003b0: 5bb8 d0be c6d3 883e f90d cabd 7a7e c13e
000003c0: d63b 83bd 5cb0 8c3c 5924 84bd 2394 f13d
000003d0: 6c13 6c3d 0d2d 9fbc e0cd 2a3d f8b5 0dbc
000003e0: 7624 f63e 0675 fb3e 5061 ddbe 9ed7 e83e
000003f0: dabd 263b 1476 8bbe f409 1b3d 8bda 73bb
-0.17124505 -0.0020382623 0.007254029 0.0735297 -0.23023067 -0.40729573 0.35326543 -0.16760434
-0.055667885 0.19520938 -0.022891695 0.51910746 0.26658797 0.058368817 -0.1147137 0.5325708
-0.15889513 0.029530128 -0.12224966 0.22209588 -0.008076102 -0.10729224 -0.007904698 -0.086696416
-0.18653008 0.011510883 -0.220639 -0.04236103 -0.16026251 0.1980617 -0.037470926 -0.059251208
-0.04640675 -0.49450952 -0.2689923 -0.01951532 0.33601785 -0.037896007 -0.59595263 -0.02956778
0.014134814 0.17630441 0.0833275 -0.05107818 0.45658535 0.0052875737 -0.071477585 0.17992699
-0.11463225 -0.021713583 -0.03198962 -0.03201469 -0.042214375 0.013532318 -0.20985016 -0.030358803
-0.011838093 -0.40867224 0.05154537 0.11583149 -0.013946541 0.015784288 -0.46812382 0.36288854
0.4107316 0.5542331 0.46409285 -0.35354215 0.28200105 0.034312163 -0.08770173 -0.02269743
0.25898483 0.38638106 0.0050155288 -0.47648793 -0.15273184 0.29685372 -0.032946706 -0.018989835
0.03420329 -0.005388302 0.21447189 -0.19042963 -0.05895905 0.4592286 -0.09708528 0.16053356
-0.076814204 -0.006656895 0.38867736 -0.0013911031 -0.008977275 0.1504242 -0.002109165 0.021606665
-0.20538947 -0.07172437 0.5374809 -0.0843598 0.04823495 -0.1307278 -0.32152444 0.23014067
-0.27020037 -0.15376778 0.10453203 0.011918334 0.040752012 -0.026712487 -0.33950543 -0.10632206
-0.26025918 -0.113197595 0.09523662 0.1294192 0.3030582 -0.039322183 -0.04667307 0.033717465
-0.0055669714 0.405152 0.37928143 -0.07485787 0.37636206 -0.056140035 0.5892463 -0.015117376
-0.040830366 -0.37859568 -0.36658898 0.46037078 -0.07465341 0.3490949 -0.04556648 0.009654913
-0.015611227 -0.22518867 -0.51833266 0.07131699 0.11581236 0.038514458 0.29288292 -0.50964
-0.11426462 -0.0593456 -0.4380358 0.13677564 0.09679754 -0.09009702 0.058961254 0.47578564
-0.32906896 0.013665285 -0.006391375 -0.012556158 -0.058935195 -0.24927194 -0.005407976 -0.20420428
0.022564724 0.13201757 -0.13054812 0.42712787 -0.34939086 -0.04364825 0.0047209067 -0.02502608
0.530428 0.18086445 -0.03055226 -0.19509608 -0.1851173 0.15265216 0.0050626784 0.025935348
-0.20495644 -0.10380702 0.471483 0.0051422333 0.36865637 -0.098114006 -0.3045502 -0.2783107
-0.060100663 0.16406333 0.015752204 -0.013020905 0.1671479 -0.046940457 -0.133582 -0.04118831
0.37579083 0.5590752 0.04210866 -0.2676712 -0.020202087 0.46322098 -0.086233824 -0.15724985
0.26966563 -0.07493704 0.38861674 -0.025886554 0.19388703 -0.0066677043 0.057918925 -0.00776284
-0.3131842 -0.019175638 0.61365104 -0.008427342 -0.0056864326 -0.108775035 -0.24521327 -0.3878424
0.22237031 -0.24385226 0.020586988 -0.27223188 -0.48579872 0.02238398 -0.0032569135 0.4428016
-0.39375043 0.04935237 -0.048848588 -0.049675703 0.11754883 -0.012185338 -0.044036046 0.0090118265
-0.09390758 0.32617366 -0.014564438 -0.597613 -0.40765652 0.2672407 -0.09865946 0.37791806
-0.06407897 0.017173938 -0.06452245 0.11795833 0.05763571 -0.019430662 0.041700244 -0.008649342
0.48074692 0.4911272 -0.43238306 0.45477003 0.002544275 -0.27238524 0.03785129 -0.003720912

linear2.bias f4 [3]
00000000: fe87 7b3e caa2 153e 834e 0d3c
0.24563596 0.1461288 0.008624676
